resnet/notebooks/best.pth (torch, 552658 bytes, 18 tensors)

conv1.weight f4 [16, 3, 3, 3]
000000 56 b1 3e 3e 75 60 a1 bd 48 d1 36 be 7f ca 97 be
       0.18622336 -0.07879726 -0.17853272 -0.2964668
000010 8f ee b0 be b4 47 07 be db ee a7 3d 75 51 e8 3e
       -0.34557006 -0.13210946 0.08199855 0.45374647
000020 90 69 a7 3e 70 04 7a 3e 4d 89 e4 bc 29 1b ad bd
       0.32697725 0.24415755 -0.027897501 -0.08452446
000030 d0 6a 97 be 1c 11 b2 be 98 0f 47 be e6 15 84 3d
       -0.2957368 -0.34778678 -0.19439542 0.06449489
000040 4b 18 c2 3e 9e 87 8b 3e 0a a2 27 3e 83 67 28 bd
       0.3790916 0.27251905 0.16370407 -0.04111434
000050 11 b8 88 bc 6a 0a 79 be 1b 00 b1 be 08 59 bc bd
       -0.016689332 -0.24320379 -0.34570393 -0.09196669
000060 91 66 87 bd 93 b0 80 3e 31 63 88 3e a2 48 9b bd
       -0.0661136 0.25134715 0.26638177 -0.07582213
000070 7c 58 d6 bd 9d c2 80 3d d5 13 75 be cd e1 8b be
       -0.10466096 0.062871195 -0.23933347 -0.2732071
000080 d3 44 35 be 24 8c 03 be aa d5 96 be d9 31 65 be
       -0.17702036 -0.12846428 -0.29459888 -0.22382297
000090 19 e5 50 bb a6 75 c3 3d d4 16 3c 3e 20 a2 e8 bd
       -0.0031874834 0.09543924 0.18368083 -0.11359048
0000a0 b4 a0 29 be 52 7d 69 bd b8 8a f0 bc c4 e8 2b be
       -0.1656521 -0.05700428 -0.029363021 -0.16788012
0000b0 a6 50 d3 bd f3 a0 1c 3d a2 aa fa 3d b0 d5 2e 3e
       -0.10318117 0.03823943 0.12239577 0.17073703
0000c0 4e 56 16 bd 60 b1 4a bd 8a d0 22 3d 1b 39 01 3e
       -0.0367034 -0.049485564 0.03974966 0.1261944
0000d0 08 46 e6 3a de d1 27 bd 8c 79 b6 bd 3e 8d a1 bd
       0.0017568478 -0.04097163 -0.08909902 -0.07888268
0000e0 35 a8 13 bd c4 48 ae bd 00 d4 b1 bd d1 6f 91 bd
       -0.036049087 -0.08509973 -0.08683014 -0.071014054
0000f0 95 06 44 3d 18 a1 5d 3d f4 eb 98 3c de 27 ca bd
       0.04785784 0.05410871 0.018667199 -0.09870885
000100 b3 8e 55 3d 78 95 e4 bd d6 97 a2 bd 79 a4 c3 bc
       0.05213804 -0.111613214 -0.07939117 -0.023882138
000110 4f 95 ff bd 55 7f 0e be 9f 51 43 be 44 b2 7b be
       -0.1247965 -0.13915761 -0.19074105 -0.24579722
000120 aa f4 84 3e f2 c3 00 3f 4f 2a 8a 3e 0d 04 95 3e
       0.25967914 0.5029899 0.26985404 0.29104653
000130 c9 7c bd 3e 8c e7 af 3d a8 7b a9 bd b1 c1 1b bd
       0.37009266 0.08589086 -0.08275539 -0.038026515
000140 62 09 6a be 85 d2 19 be 59 92 b7 3e 3e ed 44 3e
       -0.22855142 -0.15021713 0.35853842 0.19231126
000150 32 f2 1e bd 85 0a 91 be b8 29 98 be 53 e5 5a 3e
       -0.038805194 -0.28328338 -0.2971933 0.21376543
000160 4b 14 3b bb 00 6b 8f bd 55 50 2c be a2 51 e1 3e
       -0.002854603 -0.070028305 -0.16827519 0.44007593
000170 f6 87 de 3e 32 14 99 bd 75 06 a1 be ca 62 7f be
       0.43463105 -0.07474555 -0.3145024 -0.24940029
000180 be d5 77 3e f5 04 30 bd 08 07 d7 bd 33 b0 c2 be
       0.2420263 -0.042973477 -0.10499388 -0.38025054
000190 fd 25 8a 3e 39 c9 bc 3e df 40 3c be c1 40 bd be
       0.26982108 0.3687227 -0.18384121 -0.36963466
0001a0 08 c8 97 be e9 8d bd 3e 76 c0 d4 bb f9 0f 11 bd
       -0.296448 0.3702233 -0.0064926697 -0.035415623
0001b0 21 ca 82 3e 2a 8e 90 be 6f 9f b0 3d 5d 4c 0d 3f
       0.25544837 -0.28233463 0.086241595 0.55194646
0001c0 63 37 f3 be e5 ee b2 3c 64 12 ae 3e f6 7b e3 be
       -0.47503194 0.02184243 0.33998406 -0.44430512
0001d0 03 70 5d bc d6 16 9b 3e 9d ee c7 be 9c cc c4 3c
       -0.013515475 0.3029086 -0.39049235 0.024023347
0001e0 ac ff 25 3f b0 63 f6 be 1c 5d a3 bd 0b 8b d5 3e
       0.6484325 -0.4812293 -0.079767436 0.41707644
0001f0 a5 d6 f7 be b8 87 c6 bc 73 f0 35 3e dc 34 d7 be
       -0.48405948 -0.024234638 0.17767505 -0.42032516
000200 1c 4d 1b bc 11 e7 fb 3e 9d 8a ee be a3 56 10 bd
       -0.0094788335 0.49199727 -0.4659013 -0.035238873
000210 50 d3 c9 3e 1c 25 99 be 8f 18 14 3e 9a ee 33 3e
       0.3941903 -0.29911125 0.14462493 0.17571488
000220 7c e2 fe 3d b2 6f ca bc cc 9f f7 3e 20 0d b2 3e
       0.12445542 -0.024711464 0.48364103 0.3477564
000230 d7 c8 4c 3e 38 b9 75 3e 9c da 1b 3e 19 5e c7 3d
       0.1999849 0.23996437 0.15220112 0.097347446
000240 f6 c9 61 bd a5 35 64 be fa be c9 bd b0 58 ec bd
       -0.055124246 -0.22286089 -0.09850879 -0.11540353
000250 6e b2 01 bf b3 09 ef be fd e2 21 be 9b 48 f7 be
       -0.5066289 -0.46687087 -0.15809245 -0.4829758
000260 f3 3b 89 be 5b 27 ac 3e 62 83 be 3d 37 24 81 3d
       -0.2680355 0.33623776 0.09302403 0.063057356
000270 92 52 44 3e bc 2f 91 be 38 f9 5a be 2d 99 3f 3e
       0.19172123 -0.2835673 -0.21384132 0.18710776
000280 ff cc 39 be e3 66 13 bd 28 77 08 bc 7c c7 b0 be
       -0.18144606 -0.035986792 -0.00832919 -0.34527194
000290 fd bf b5 3e 3d cc 2a be 4d d4 8a be ef a1 11 3f
       0.35498038 -0.16679473 -0.27115098 0.56887716
0002a0 0b cc ff bd 31 e9 79 be 83 e3 8e 3e 9f 59 bf bd
       -0.1249009 -0.24405362 0.27907953 -0.09343266
0002b0 69 d0 b2 be 94 f3 ac 3e 2e c3 7d be b6 9e 6e be
       -0.3492463 0.33779585 -0.24781486 -0.23302731
0002c0 41 d4 0e 3f 91 54 ae bd 52 db 39 be 62 8a 67 3e
       0.55792624 -0.085122235 -0.1815007 0.22611383
0002d0 f9 26 48 be 08 22 d6 be 0d 34 bf 3e d2 db 99 be
       -0.19546117 -0.4182284 0.373444 -0.30050522
0002e0 71 b8 5f be b0 e2 1c 3f 6c 65 e7 bd b1 74 f5 bd
       -0.21847703 0.612834 -0.112986416 -0.11985148
0002f0 ef d3 b0 3e 99 84 00 3f 27 d9 4c 3f ac 4c e6 3e
       0.34536693 0.5020233 0.8001885 0.4498037
000300 da 08 1a be ec a7 50 be 7b cf c0 be bc e4 95 be
       -0.15042439 -0.20376557 -0.37658295 -0.29276073
000310 9d a5 d2 be e1 43 42 be b1 e1 59 3e 2e 32 ff 3e
       -0.41141978 -0.18971206 0.212775 0.49842972
000320 c6 b3 82 3e 4d ae e4 bd 24 04 99 be 5c a5 b2 be
       0.2552778 -0.11166058 -0.29885972 -0.34891784
000330 30 48 cd bd d2 a4 1f be 28 6e af 3a 14 4d bd bc
       -0.10023534 -0.15590218 0.001338427 -0.023108043
000340 e8 9f 01 3e 0f 02 89 bb 82 e3 09 be da 09 a3 be
       0.12658656 -0.0041811536 -0.13465694 -0.31843454
000350 d5 51 8e be 5b 98 33 3e cb 88 31 3d cc 76 96 3e
       -0.27796808 0.17538588 0.043343347 0.2938751
000360 37 c9 9f bd 54 5b 41 be 23 74 cb 3d 80 84 b6 be
       -0.078020506 -0.18882495 0.09934261 -0.35647964
000370 d2 e9 48 be 60 c8 02 bc 4c 0a 8e 3e 30 3c 01 3f
       -0.19620445 -0.007982343 0.2774223 0.50482464
000380 09 41 78 ba fd 75 1b 3d be 4b 24 be 0e 6c d9 3c
       -0.000947014 0.03795432 -0.16044518 0.026540782
000390 53 28 ad be cc bd 7c be 92 7b 04 be d3 9d 9f 3e
       -0.33819827 -0.24681777 -0.12937763 0.31175098
0003a0 eb 3f f6 3e 01 1a 61 3d 0b cf 9b 3d 50 df 3a be
       0.4809564 0.05495644 0.0760785 -0.1824925
0003b0 5e 4b 96 3d 3b 15 a8 be 96 b9 9a be a6 e1 ef bd
       0.07338594 -0.32828698 -0.30219716 -0.11712961
0003c0 b8 e4 91 3e a4 cd e8 3e 20 dc da 3b 5f 93 ca bd
       0.2849481 0.4546939 0.006679073 -0.0989139
0003d0 3a 4d a6 bd 77 3b 1b be 81 d2 08 be 5b 64 7d be
       -0.081201985 -0.15159403 -0.13361551 -0.24745314
0003e0 36 f6 5c be 09 9c b8 bd 6b 60 20 be 40 f2 0b be
       -0.21578297 -0.09014136 -0.1566178 -0.1366663
0003f0 af 49 25 3d f5 7b c3 3d e8 30 64 3c d4 91 b5 bd
       0.040353473 0.09545127 0.013927676 -0.08865705

conv1.bias f4 [16]
000000 60 14 35 3d 74 dd 5f 3b 6d 30 0e bd a1 df 98 bc
       0.044208884 0.0034159096 -0.03471415 -0.018661322
000010 6e 57 3a 3c 6c a2 22 bd d7 f9 d3 3c 93 af 41 bd
       0.011373384 -0.03970568 0.025875969 -0.04728658
000020 c0 14 4d bd e0 4b 4f bd 88 1e 2d bc 7a 74 0f 3d
       -0.050068617 -0.05060947 -0.010566361 0.03502319
000030 5d ec 49 bd ff 53 31 3d a7 ae aa bc 69 ef 79 3c
       -0.04929768 0.043292996 -0.020835234 0.015254834

bn1.weight f4 [16]
000000 2d b4 23 3f 40 4c 21 3f b4 17 9c 3e ef 01 3e 3f
       0.639468 0.63006973 0.30486834 0.742217
000010 04 df 7e 3f 15 44 f4 3e ce 15 6a 3f d9 a1 5a 3f
       0.99559045 0.47708192 0.9143952 0.8540321
000020 e3 24 24 3f 70 aa 9b 3e 6d 4f 0a 3f d6 3b 12 3f
       0.64118785 0.3040347 0.54027444 0.5712255
000030 de ad fc 3e 9d d7 03 3f 36 ec b5 3e aa 00 2c 3f
       0.493514 0.51500875 0.35531777 0.67188513

bn1.bias f4 [16]
000000 36 cc 0a be f9 fd 4d be f6 a1 e3 3d cf 4d 9b be
       -0.13554463 -0.20116414 0.11114876 -0.303328
000010 6a 35 4f be 72 6e 0d 3e c6 9e a0 bd 1e e3 13 be
       -0.2023522 0.13811663 -0.07842784 -0.14442107
000020 20 f5 b5 bd 40 75 0b 3e 73 fa b9 bd 86 d0 f8 bd
       -0.088846445 0.13618946 -0.090809725 -0.12149148
000030 5a 34 fa bd 2a 6e 94 be 09 1e a5 3d 79 16 63 be
       -0.122170165 -0.28990299 0.080623694 -0.22176541

bn1.running_mean f4 [16]
000000 de 73 0c bd f0 46 34 bf c1 8b ae bb 37 80 fd bd
       -0.034290187 -0.7042074 -0.0053267186 -0.12377971
000010 c8 3b 82 bd 90 46 75 be 4f 56 00 bd b5 22 bc bd
       -0.063590586 -0.23952699 -0.03133231 -0.09186307
000020 b3 0b 60 bd cd cc fb bd f5 29 f1 bd fb b6 86 be
       -0.054698657 -0.12294922 -0.11775581 -0.26311478
000030 a3 f9 ee 3e e6 ad f1 3e 00 df d0 3e bd 55 01 bf
       0.46674833 0.47202986 0.40795135 -0.5052145

bn1.running_var f4 [16]
000000 41 71 94 3d ae a9 07 3e bd 8d 4b 3d 0d 6c 60 3d
       0.07248164 0.13248321 0.04969572 0.054790545
000010 cd dc 41 3e fe b0 b5 3d 3d 84 72 3e 0a 2a 29 3e
       0.18931885 0.08871649 0.23683257 0.16519943
000020 ce 3d c3 3d 82 50 86 3d ad 6e 9c 3d 07 99 4d 3d
       0.09533273 0.065583244 0.07638297 0.050194766
000030 6d f6 be 3d af 8e 83 3d 0a 81 7a 3d 89 89 a4 3d
       0.09324346 0.06423699 0.061158217 0.08034045

conv2.weight f4 [16, 16, 3, 3]
000000 a2 04 0c 3c 72 63 71 3d 96 4f 9e 3d 3c 94 1b bb
       0.008546026 0.05893273 0.077300236 -0.0023739478
000010 fb 59 16 3e e0 47 36 bd 7d 66 52 3d b3 22 bc 3d
       0.14682762 -0.04450214 0.05136727 0.09186306
000020 95 93 cd bd c4 86 29 bd dc eb 4b bd 85 ec ac bd
       -0.10037915 -0.04138829 -0.04978548 -0.0844355
000030 65 1f 0b be df 0b e8 bd 6d 23 59 bd af 19 ed bd
       -0.13586195 -0.11330389 -0.0530123 -0.115771644
000040 72 7c c1 bd d6 63 94 3d 4a dc 27 3e 6f 4a 44 3d
       -0.09447564 0.07245605 0.16392627 0.047922548
000050 28 69 8a 3d 92 a5 a5 bd c5 24 c3 bd f8 4a 15 bd
       0.06758338 -0.08088221 -0.095284976 -0.03644845
000060 60 41 c2 3b 3e fa 6f bd e0 cf 4d 3c 8a ef 0c be
       0.0059282035 -0.05858826 0.012561768 -0.13763252
000070 bf 50 80 bd 97 be 95 bd 29 b6 9b bd 99 ed 09 3d
       -0.06265401 -0.07311743 -0.07603104 0.033673856
000080 1d 6c af bd a2 b8 20 bd c4 f7 17 bd b8 e7 e6 bc
       -0.08565543 -0.03923858 -0.037101522 -0.028186664
000090 b6 d7 e4 bd 1a 4e 64 be b9 2f bb bd 9e 5a f5 bd
       -0.11173956 -0.22295418 -0.09139962 -0.119801745
0000a0 e5 ae 12 be e7 99 3c bd f7 f9 9f bd 3e 65 50 bc
       -0.1432453 -0.04604521 -0.07811349 -0.0127194505
0000b0 ce d9 a6 3d 38 46 5f 3e ab d3 9d 3e 7c 5f 48 3d
       0.08147012 0.2180413 0.30825552 0.048919186
0000c0 39 46 d6 3c fb f1 a0 bd 05 27 86 bd 75 10 19 be
       0.026156532 -0.07858654 -0.06550411 -0.14947684
0000d0 03 30 3f be 26 1d 38 bd a9 2f 18 be 79 7a 88 be
       -0.18670659 -0.044949673 -0.14861931 -0.2665594
0000e0 97 2b 41 3e c6 0c 55 bb c9 05 0a 3e f0 cf 4c 3e
       0.18864284 -0.0032508834 0.1347877 0.20001197
0000f0 25 bc 24 3e 24 24 1b 3e ba 79 54 3d f8 0c 27 3c
       0.16087396 0.15150505 0.0518739 0.010195963
000100 f3 b3 ff 3c 84 f5 ee 3b ca 36 20 bd b1 79 62 3d
       0.031213736 0.0072924513 -0.03911475 0.055291835
000110 26 c2 2a bd 5b 02 8f 3d 62 4e 59 3d ba 6a b9 bd
       -0.04168906 0.06982871 0.053053267 -0.090535596
000120 d9 ef 67 bd 0a bd 9d bb f5 51 04 3e d1 6d c5 bd
       -0.05662522 -0.004813795 0.12921889 -0.096400864
000130 5b 07 f7 3d 99 ab 81 3d cd f6 89 3d 55 24 a8 3d
       0.1206195 0.06331558 0.06736527 0.08210055
000140 84 9c ae bd 77 5b e6 3c 9e 5f 95 bc d3 9a 29 3d
       -0.08525947 0.028119786 -0.01823407 0.041407418
000150 d5 30 be bd 33 f3 10 be 9c 1c a2 bc ba cb 9a 3c
       -0.09286658 -0.14155273 -0.019789033 0.018895973
000160 cd 1f 93 bc 8f 4c f7 3d 43 68 24 3b 60 85 13 3d
       -0.0179595 0.12075149 0.002508656 0.03601587
000170 67 bd 9d 3d 60 3d cc bc 49 e1 2c bb bc 6c b4 bd
       0.07702141 -0.02493161 -0.0026379398 -0.08809802
000180 bb 88 97 bd 92 77 00 3d fc 9f b6 bd 9a 11 ec 3d
       -0.07399126 0.03136403 -0.08917233 0.11526795
000190 fd 1c 87 3d d2 f0 06 be cf b3 7a 3d 22 19 be bd
       0.06597326 -0.13177803 0.061206635 -0.092821375
0001a0 d9 ed 01 be df 1b a7 bd 4e 9c 23 be 30 5d 12 be
       -0.12688388 -0.08159613 -0.15977594 -0.1429336
0001b0 1b f2 f4 3d 2a 40 95 3d 8d 43 e5 3d 76 b1 54 3d
       0.119602405 0.07287629 0.11194525 0.051927052
0001c0 0e d3 57 bd 08 2d e2 bd e5 2d 69 bd 6e 88 24 be
       -0.05269151 -0.11043745 -0.056928534 -0.16067669
0001d0 9e 94 3e be 92 b2 92 bc 3d 67 21 bc 71 56 5b 3b
       -0.1861138 -0.017907415 -0.009851274 0.003346827
0001e0 21 6c ac 3d 60 7f 9f 3d 77 05 6f 3b a8 d1 5a 3d
       0.084190615 0.07787967 0.0036471763 0.0534226
0001f0 5f 89 8e bd e8 2b 18 be 79 31 6b bd 2e ad 36 bd
       -0.06959795 -0.14860499 -0.057420228 -0.04459875
000200 00 34 bd bc 68 6d 0a bd be 36 9e bd e8 08 69 3d
       -0.023096085 -0.033795744 -0.07725285 0.05689326
000210 f0 49 c6 bc a7 a1 13 be ef e9 86 3b 10 29 e9 bc
       -0.024205178 -0.14417134 0.0041172425 -0.028461963
000220 bc b1 a0 3e ac 26 7c 3e c0 b3 5e 3e e9 80 d2 3e
       0.313856 0.24624127 0.21748257 0.41113976
000230 06 0d b1 3d 5f 0f 70 bd b8 3b 34 be 12 a7 af be
       0.08645062 -0.05860841 -0.17600906 -0.34307152
000240 e8 f9 58 bc 79 19 10 3e 4f 3c 97 3d 2d 0a 7b 3e
       -0.013243176 0.14072217 0.0738455 0.245156
000250 94 8a 76 3e 9d 89 07 3e c8 6a 93 3d 83 df db 3d
       0.24076301 0.13236089 0.07198101 0.10735991
000260 b7 44 65 bd d4 93 59 be 5f 50 59 be 32 90 1c be
       -0.055973735 -0.21247798 -0.21222065 -0.15289381
000270 a6 ec d0 bd 8c 79 a7 bd 35 4e 11 bd 9f 61 93 bd
       -0.10201387 -0.0817748 -0.035474975 -0.07196354
000280 ce 4c 79 bd 3e 9d 7d bc 71 1d 1d bd 64 d0 ed bc
       -0.060864262 -0.015479384 -0.038358156 -0.029030032
000290 8b ff d8 bc 89 d3 1d 3d 71 d5 74 3e 61 13 76 3e
       -0.02648904 0.038531814 0.23909546 0.2403083
0002a0 03 a0 dc 3c 85 9a 29 3e e2 6b bb 3d 18 91 11 bc
       0.026931768 0.16562851 0.091514364 -0.008884691
0002b0 5e c8 61 bd e6 68 f0 3b c8 6a 00 3d 9a 93 12 bb
       -0.055122726 0.0073367236 0.031351835 -0.002236581
0002c0 aa a9 44 bd 12 70 d6 3d 04 86 0e bb 84 0c 1e be
       -0.048013367 0.104705945 -0.002174736 -0.15434462
0002d0 0f 56 2b bd e5 7e c1 bd c9 98 86 3c 63 7f 80 bd
       -0.04183012 -0.09448031 0.016430276 -0.06274297
0002e0 45 7f 8c bd f6 72 45 3c 37 cd a9 3b 08 30 2a 3d
       -0.06860212 0.012051335 0.005181934 0.041549712
0002f0 31 44 2d bb 22 cc c4 bd d6 a6 97 bd 02 5b 8c bd
       -0.002643835 -0.09609248 -0.07404868 -0.06853296
000300 88 73 ff bd 71 16 7e bd a9 dd 6e bc 34 0c c6 3c
       -0.12473208 -0.06203312 -0.014579215 0.02417574
000310 42 0b e5 3d 63 cf 4d 3e be f8 66 bd ca 45 f2 3c
       0.11183788 0.20098643 -0.056389563 0.029574294
000320 ae dc 18 3d 40 a6 01 3e ed e0 37 3d dd 63 f2 3c
       0.03731983 0.12661076 0.04489224 0.029588634
000330 64 76 79 3d 4b 09 54 bd 51 fa 40 bc f1 55 df bc
       0.06090392 -0.051766675 -0.01177843 -0.02726266
000340 2b ba e3 3d 40 76 14 3e d5 b6 cb b9 c2 9a 20 3e
       0.11119493 0.14498234 -0.00038855398 0.15684035
000350 ff 87 c1 3d 5d 83 c4 3d 86 bb 0f 3e bc 5b 37 bc
       0.09449767 0.09595368 0.14036378 -0.011191305
000360 46 a0 ad bc b2 a4 02 3e a7 64 50 3d bd 0f 5b 3e
       -0.021194588 0.12758139 0.05087724 0.21392722
000370 f9 5e 49 3e b4 76 e2 3d 72 c2 bb 3c 52 23 f4 3d
       0.19665135 0.11057797 0.022919867 0.11920799
000380 62 3e e2 3a fd 79 69 bc ad 27 51 3d ca 42 7b bb
       0.0017261023 -0.014250276 0.05106323 -0.003833937
000390 13 57 ac 3d 65 aa 74 3e ab 21 37 3e 62 f2 df bc
       0.084150456 0.23893125 0.17883937 -0.027337257
0003a0 0d 26 c9 3d 03 9e 58 bd 2e ec 93 bc 48 da d7 3c
       0.09821711 -0.052885067 -0.018056955 0.026349202
0003b0 65 0d 87 3b 21 07 96 3d c2 c2 66 3d 7b f5 81 bd
       0.00412147 0.073255785 0.05633808 -0.0634565
0003c0 46 dc 90 3d 08 b2 db 3d cf f3 f1 3c f5 d9 6b bb
       0.07073264 0.10727316 0.029535202 -0.0035988067
0003d0 78 09 bc bc 03 12 26 bd 5c 3f 1a bd fa 77 b6 bd
       -0.022953734 -0.04054452 -0.03765808 -0.089096025
0003e0 15 a3 71 bd 31 ab 6a bd 61 41 3b bc db 33 4d bd
       -0.058993418 -0.057292167 -0.011429162 -0.05009828
0003f0 6a 03 bf 3d cd f6 37 3d 0b 12 ba bc 37 32 df bc
       0.09326823 0.044913102 -0.022713682 -0.027245624

conv2.bias f4 [16]
000000 11 11 12 bb 49 a3 ce b9 1d 95 89 bc 31 48 b4 3c
       -0.0022288004 -0.0003941304 -0.016794736 0.02200708
000010 20 5e 1f bc ea fd 56 3c ff 26 4f bc 74 b1 1e 39
       -0.009727031 0.013122061 -0.012643575 0.0001513416
000020 11 fe fc 3b 43 a4 a9 bc d7 7e 29 3c 41 6c 8d bc
       0.0077207168 -0.020708209 0.010345182 -0.017263534
000030 88 42 4e 3b df 8c 92 bb b2 d0 53 3c 80 91 b3 3c
       0.0031472761 -0.0044723595 0.012928175 0.021919966

bn2.weight f4 [16]
000000 f7 78 eb 3f af a9 b3 3f 17 2b c3 3f 9f 3a 9d 3f
       1.839629 1.4036158 1.5247525 1.2283515
000010 2b 0c bc 3f 70 ba ad 3f 34 5a ff 3f 32 73 c5 3f
       1.4691213 1.3572521 1.9949403 1.542578
000020 89 6e e4 3f f4 04 d8 3f 2b c7 07 40 f9 bb df 3f
       1.7846233 1.6876512 2.1215312 1.747924
000030 79 a7 d7 3f cd 8f bc 3f 4f dd af 3f 32 41 09 40
       1.6847984 1.4731385 1.3739413 2.1446042

bn2.bias f4 [16]
000000 4a e2 09 bf 3d 3b d5 be 25 72 05 bf 50 c0 4c be
       -0.53860915 -0.41646758 -0.52127296 -0.19995236
000010 6c b7 f3 be a9 01 aa be a3 9c 21 bf 65 e1 c1 be
       -0.47600877 -0.33204392 -0.63129634 -0.37867275
000020 23 b4 3b bf 1b 2a 05 bf f2 79 24 bf 04 6c 19 bf
       -0.7332174 -0.5201737 -0.64248574 -0.59930444
000030 8f 8a 09 bf ce 40 b5 be c1 5b 5a be e6 f2 1f bf
       -0.5372705 -0.35401005 -0.21324064 -0.6248001

bn2.running_mean f4 [16]
000000 b6 42 3a be d8 23 34 3e 6e 2d 2d bf ea 65 4f be
       -0.1818951 0.17591798 -0.67647445 -0.20253721
000010 ee 3e 56 bf be 80 08 be b6 b1 82 3e f0 17 09 bc
       -0.83689773 -0.13330361 0.25526208 -0.008367524
000020 78 6e e0 3e 7e a6 b0 3e cd de de 3d 38 91 54 be
       0.4383428 0.34502023 0.108823396 -0.20758522
000030 47 b9 b9 be 54 d8 f0 be c9 1c e1 be 6e 7c e0 3c
       -0.36274168 -0.47040045 -0.43967274 0.027403083

bn2.running_var f4 [16]
000000 24 71 49 3e b5 b1 3c 3e 8f 41 5a 3e e4 8c 37 3e
       0.19672066 0.18427165 0.21314071 0.1792484
000010 b7 a3 a4 3e bc 9b 37 3e 03 64 61 3e 23 0b 6c 3e
       0.32156155 0.17930502 0.22010808 0.23051123
000020 9d cb 45 3e 63 6a 25 3e 52 ed 5f 3e eb fd 53 3e
       0.19315954 0.16153865 0.21867874 0.20702331
000030 b7 67 55 3e c9 c0 90 3e ea 0e aa 3e ec b4 90 3e
       0.20840345 0.28272083 0.33214504 0.28263032

fc1.weight f4 [120, 1024]
000000 48 1d 99 3c a1 5a 14 bc 72 91 db 3c a4 57 19 3b
       0.01869072 -0.009054811 0.026802752 0.0023398185
000010 70 b1 bb ba a8 df 8c 3c 88 be 06 bc fe 8d 25 3c
       -0.0014319848 0.017196491 -0.008224137 0.010104654
000020 b4 b1 10 3d 7a 09 05 3c b3 8c 7f 3c be 0f e4 3a
       0.03532572 0.008119935 0.01559751 0.0017399711
000030 e3 2a dd bc ea 7b b1 bc 3f aa 07 bd 94 28 06 bc
       -0.026997989 -0.021665532 -0.033121344 -0.0081883855
000040 22 76 19 3c 2a 88 8f 3d c9 60 c3 3b 38 91 82 3c
       0.009366544 0.07008393 0.0059624654 0.015938386
000050 96 17 ab 3c 25 98 44 bd c1 00 e3 bc 05 91 e6 ba
       0.02088527 -0.04799666 -0.02771032 -0.0017590827
000060 ec ac 94 3c 76 8d a9 3c e7 ee d0 bc f8 39 cb bb
       0.018148862 0.020697337 -0.025504543 -0.006201979
000070 d7 de 0c bd 50 1b c1 bc 1a 76 83 bc 62 4b 96 bc
       -0.034392204 -0.023572594 -0.016047526 -0.018346492
000080 6f 1f fd bc d2 de de bc fc f3 78 bc cd f9 05 3d
       -0.030898778 -0.027205858 -0.015194889 0.03270893
000090 7e 5c f0 3c 33 a4 f0 3c f8 87 d0 bb 13 15 62 3c
       0.029340979 0.029375171 -0.006363865 0.01379897
0000a0 4e 23 81 bc 7c dd ef bb ac b6 28 3c b1 6e 2c 3d
       -0.015763905 -0.007320104 0.010297459 0.04209775
0000b0 2f 6b 82 bc e4 89 87 3c 38 02 8d 3c 87 96 90 3c
       -0.01592025 0.016545244 0.017212972 0.017649902
0000c0 28 17 f3 bc 06 42 79 bc 63 97 f2 bc 6d 20 14 bd
       -0.029674128 -0.015213495 -0.029613202 -0.036163736
0000d0 bf 93 29 bd ba 31 17 bd c1 56 da 3c 86 a0 4b bc
       -0.041400667 -0.036912657 0.026652696 -0.0124284085
0000e0 1b 0a 77 bc e0 da 80 bc 04 d8 69 bc 50 34 ca bc
       -0.015078093 -0.015729368 -0.014272694 -0.024683148
0000f0 a5 21 9c bd 1d e0 1e bd ff 5f 03 bd 24 82 8b bc
       -0.07623605 -0.03878795 -0.03207397 -0.01702983
000100 2c df 7f bb f5 63 39 3c b6 17 bb 3c 94 fd da 3c
       -0.0039042933 0.0113153355 0.022838455 0.026732244
000110 aa fb 21 3c b6 88 de 3b 7f 6c c5 3a dd 35 4e bb
       0.009886662 0.0067911996 0.0015062242 -0.003146521
000120 20 e2 42 bb 62 b1 b8 ba a2 74 f4 bb 1a e4 37 3d
       -0.0029736832 -0.001409095 -0.007460193 0.04489527
000130 3d 12 94 3b b8 3d 0f bc 8a 4d 01 bd 5f ea 8e 3b
       0.0045187757 -0.008742742 -0.031568088 0.0043614353
000140 47 17 1d bb 60 39 3b bc e7 d2 05 bd 32 0b 42 3c
       -0.0023970173 -0.0114272535 -0.032671835 0.0118434895
000150 1e 0f 52 bb 35 e3 aa 38 d9 10 87 bc ae f2 ab bb
       -0.0032052468 8.148552e-05 -0.016487526 -0.0052474355
000160 1d d1 eb 3b dc 5b 3a 3c b8 00 fe bb 2b 4c a3 bb
       0.007196559 0.01137444 -0.0077515505 -0.004983445
000170 55 71 f6 bb 2c b2 44 bc 0d 84 a0 3c 92 80 94 3b
       -0.0075208344 -0.01200537 0.019594217 0.0045319283
000180 d4 da d4 bc ef 5e 33 bd 5e e9 13 bd 48 2d 2b bc
       -0.025983252 -0.043791708 -0.03611123 -0.010447808
000190 0e 2d b3 3c 87 c5 19 3c 65 b2 8e 3b 6e cc 20 bc
       0.02187207 0.009385473 0.0043547624 -0.009814365
0001a0 fd 17 11 bd f7 02 db bb 68 a1 2c bc c5 af b4 bc
       -0.035423268 -0.006683703 -0.010536529 -0.02205647
0001b0 03 a6 77 bc 60 c7 2f bc 7c 08 cf bb 8b a8 8b 3c
       -0.015115264 -0.010728687 -0.00631815 0.017048141
0001c0 7e eb 26 3c 7b 60 b5 3b ab f7 0e 3c ca 7b 14 3a
       0.010187982 0.005535183 0.008726041 0.0005664198
0001d0 22 64 10 bb 52 0f a0 ba 20 c8 cb bb 65 22 9b 3c
       -0.002203234 -0.0012211597 -0.006218925 0.018937299
0001e0 7c cb db 3b 06 23 ec bc 0e 07 28 bd b7 ac 05 bd
       0.006707607 -0.028825294 -0.041022353 -0.032635417
0001f0 44 00 00 bd 3f 04 5f bc 6a 10 30 bb 5b 98 d5 ba
       -0.031250253 -0.013611852 -0.0026865252 -0.0016296016
000200 a6 00 be bc 7f 01 1f bd 56 b5 7a bc 38 a8 85 bc
       -0.023193669 -0.038819786 -0.015302023 -0.016315565
000210 14 d7 47 bc 5b 6b 1f bc cb 74 fc ba 23 dc 2d bb
       -0.012197275 -0.009730185 -0.0019260881 -0.0026528917
000220 ac 89 da bb 7e 97 c8 bc 3a 95 de bc 91 b6 87 bc
       -0.006669244 -0.0244863 -0.027170766 -0.016566547
000230 9b 30 9a bb 91 bb 59 bb d4 20 04 bc 07 00 b4 bb
       -0.0047055013 -0.003322337 -0.008064467 -0.0054931673
000240 2a 10 b1 3a e0 97 86 bc 25 eb b2 bc 73 c8 9a bc
       0.0013508846 -0.016429842 -0.021840641 -0.01889441
000250 d5 5f ee bc ed 55 9c 3c b3 21 92 3b c1 2f fe 3b
       -0.02909843 0.019083941 0.0044595837 0.0077571576
000260 69 aa 31 3c bd ea 5e 3c e2 3a e4 bc 03 87 19 bd
       0.010843852 0.013605771 -0.027860109 -0.037482273
000270 be 26 95 bc df 1d 2d bb 54 02 67 bc 75 dc 00 3a
       -0.01820695 -0.002641551 -0.014099676 0.0004915663
000280 ac 93 2d bc 80 bb 64 38 e0 98 85 bb ea 96 4d bd
       -0.01059429 5.453406e-05 -0.004077062 -0.05019275
000290 d2 b6 bc bb 0e 8b e9 ba 9e b7 bc bc 43 0f 3d bc
       -0.0057590986 -0.0017817931 -0.023036774 -0.011539283
0002a0 a0 ce 0f 3c 3b 66 13 ba 7c e7 ad 3c ef 8d 2a 3c
       0.008777291 -0.00056228385 0.021228544 0.010409816
0002b0 7a f3 45 3c 4e c6 8a bb 7b 91 61 3a 29 30 03 bb
       0.012081975 -0.0042350655 0.0008604747 -0.002001772
0002c0 76 05 9f 3c 26 f0 33 bc 93 f5 e1 bc 5b ac 7b bb
       0.019411784 -0.010982549 -0.02758292 -0.0038402292
0002d0 3d 9d 1d 3d 7a 81 8e 3c 10 0b ef bb 2d 8d 89 3a
       0.038480032 0.017395724 -0.00729502 0.0010494344
0002e0 be 5b be 3c 44 35 0f 3b 6d 30 77 3b b6 fd cb 3b
       0.023237105 0.0021851817 0.0037718073 0.006225313
0002f0 58 8b fc 3a 08 98 8a bb bd 96 aa 3a 16 62 9d bb
       0.0019267602 -0.0042295493 0.0013014894 -0.0048029525
000300 79 08 91 3c 5f b2 e1 bb 2a 02 56 bc 67 b3 b0 bc
       0.017704235 -0.0068877186 -0.013062039 -0.02156992
000310 31 1c 06 3c 32 8c 86 bb 6d 28 86 b9 f7 5f 95 3b
       0.008185432 -0.004106068 -0.0002558859 0.004558559
000320 0a ed bf 3c ee 12 bf 3a df 22 71 3a 01 72 22 3c
       0.023428459 0.0014577785 0.00091986166 0.009914876
000330 bf ab 8f bc 5e 08 c6 bc fc 24 4d bb 10 1d 28 3c
       -0.01753795 -0.024173912 -0.0031302562 0.010260835
000340 04 77 a2 3c b9 d9 2d 3c 1b c4 34 bc ea f5 33 3c
       0.019832142 0.010610991 -0.011033083 0.010983923
000350 de 48 af bc 7f 6d 0a bc db 27 c1 bb 2a b7 29 ba
       -0.02139705 -0.008448957 -0.0058946437 -0.0006474132
000360 ef 0a 96 3b 4e 07 2f 3c 16 64 a8 bb 35 c7 bb bc
       0.00457894 0.010682894 -0.0051388843 -0.022922138
000370 0f 28 d5 bc e7 71 24 bc 49 6b 26 bc 44 f1 c7 3b
       -0.026020078 -0.010036922 -0.010157415 0.006101759
000380 a0 da 16 3b 62 71 93 bc d8 13 81 3c d5 fd 83 bc
       0.0023018494 -0.017998401 0.015756533 -0.016112247
000390 9b 81 23 bd 40 85 fd bc f1 9b 7e bc 7c 86 a3 3c
       -0.039918523 -0.030947328 -0.015540109 0.019961588
0003a0 b2 fb 60 3c a9 7c 95 3b b3 eb c4 3c 87 4a b9 3c
       0.013731884 0.00456198 0.024038171 0.022618545
0003b0 6b 42 89 bc e7 e5 ab bc 68 85 50 3b cb d8 bf 3c
       -0.016755303 -0.02098365 0.0031817798 0.023418805
0003c0 2b 52 83 bb 36 1a a8 bc 13 48 b4 3b 1d d9 8d bb
       -0.004007598 -0.02052031 0.005501756 -0.0043288604
0003d0 d2 c5 90 bc 7e dc 8e bb f5 43 aa bc 97 7d d2 39
       -0.017672453 -0.004359781 -0.020784358 0.00040147893
0003e0 e6 ca 8b 3a 8f df c7 bc 33 15 75 bc aa 43 43 bc
       0.0010665327 -0.024398593 -0.014958668 -0.011917988
0003f0 f9 42 9f bc c7 f8 67 bc c9 f1 03 bb 37 9b 04 bc
       -0.019441115 -0.014158434 -0.002013313 -0.008093647

fc1.bias f4 [120]
000000 0e 32 db bc 90 a8 e2 3c dc ad 81 3b 23 94 27 3d
       -0.026757266 0.027668267 0.003957493 0.04091276
000010 1c d9 b5 3c 8d f9 4a bc bf 03 75 3d 55 5c 12 bd
       0.022198252 -0.012388599 0.059818026 -0.035732586
000020 75 b0 70 3d a0 cb 19 3b 1b 87 04 3d 0f d8 d9 bc
       0.058762033 0.0023467317 0.03235541 -0.026592283
000030 48 6f 16 3d bb 1c b0 3d 5f e8 f6 3c 86 a9 4c 3d
       0.03672722 0.0859923 0.0301401 0.049966358
000040 85 4b fb bc 69 3f 8a 3c b8 61 38 3d 72 ac c5 3d
       -0.030675659 0.01687594 0.045015067 0.09652032
000050 66 58 9b 3c d1 e1 30 3b 59 30 1b bc cd 0f 91 bc
       0.01896305 0.0026990066 -0.009471976 -0.01770773
000060 5e aa 24 bd 8d 5a fb 3d ee 99 6c bd 7e 48 cb bb
       -0.040201537 0.122731306 -0.057763986 -0.00620371
000070 79 9d 8b bd ca 77 68 bd c3 a4 42 bd 01 6d e6 3c
       -0.06817145 -0.056754865 -0.04752041 0.028128149
000080 e9 bf 03 bb 9c 73 f2 3d ca d0 85 3d a3 21 17 bc
       -0.00201034 0.11838457 0.06533964 -0.009224328
000090 75 9d 15 bd be 99 fe 3c fd b3 17 3e c2 78 c1 bc
       -0.036527116 0.03107917 0.14814754 -0.023617152
0000a0 cc be be 3c 05 b9 15 bd 2c 32 d7 bb a3 18 10 bd
       0.023284338 -0.0365534 -0.0065672603 -0.035179745
0000b0 91 ac e4 bc 52 76 92 bb d6 3a 72 3d d2 ee 0f bd
       -0.027914317 -0.0044696713 0.05913814 -0.035139866
0000c0 b5 0f 8a bb 30 fb b4 bc 8c 4d 0f bd 2c 04 e1 3d
       -0.004213298 -0.022092432 -0.034986064 0.10987124
0000d0 fb 88 a4 3d 14 5d 7d bc 0c f9 5a 3e 70 5f 3c 3d
       0.080339395 -0.015464086 0.21384066 0.045989454
0000e0 eb e2 59 bd 29 24 e1 3a 8f 7c ab 3d 34 81 d0 bb
       -0.05319492 0.0017176914 0.08373367 -0.0063630585
0000f0 c7 3f e6 bc ae 1b e3 bb 7e 53 ac 3d 78 40 52 3c
       -0.028106583 -0.00693079 0.08414362 0.012832753
000100 c1 16 a2 3d 8b 53 d2 3d 36 28 38 bd 92 37 43 bb
       0.07914496 0.10269841 -0.044960223 -0.002978776
000110 02 21 97 3c 26 95 f6 3c e9 d3 5b bd f0 44 96 3d
       0.018448357 0.030100416 -0.05366889 0.073373675
000120 c7 8e ae 3d 57 cd 18 bd 8a 3a 6a 3e 81 c8 24 bb
       0.08523326 -0.037305202 0.22873893 -0.0025143924
000130 c6 4a 04 bc 70 4a b9 bb 0f 4f da bb 6d 9f ad bc
       -0.008074468 -0.0056546256 -0.0066622566 -0.021194184
000140 5f ae 05 bd 6f 79 82 3d 43 94 27 3c 13 4b bb 3d
       -0.032636996 0.06370818 0.010228219 0.09145179
000150 b0 df 06 bd da 6b b9 bc a4 b7 be bc b6 4c a7 bc
       -0.03292817 -0.022634435 -0.023280926 -0.02042232
000160 c7 a4 ef 3c 50 0f 89 3a 03 07 68 ba 81 9d cf bc
       0.029253377 0.0010456834 -0.00088511425 -0.025343658
000170 a0 2d cc bc b0 46 34 3b 56 cd 6a bd 0d 49 d1 3d
       -0.0249241 0.0027507953 -0.05732473 0.102190115
000180 da b1 0a bd 8e a7 93 bc 5d 03 37 3d f0 82 0f bd
       -0.03386102 -0.018024232 0.04468094 -0.03503698
000190 00 f6 25 3d ea 5c d7 bc 6d 5f 03 bd ef de 84 bd
       0.040517807 -0.026289422 -0.032073427 -0.06487834
0001a0 a6 4d 46 bd 92 24 89 3d de 18 7d 3d f2 51 84 bd
       -0.048413895 0.06696428 0.061791293 -0.06460942
0001b0 2d 84 b2 bc 7e b8 0a bd f9 1c 67 bd 53 31 e4 3d
       -0.021791542 -0.03386735 -0.056424115 0.1114222
0001c0 b3 01 ce 3c ff 11 2d bd e3 cb b8 bc ee de 07 3e
       0.025147295 -0.04225349 -0.022558158 0.13268635
0001d0 42 c9 3d 3d 34 93 03 3d 17 00 b9 bd 7c 98 4b bd
       0.046334513 0.032122806 -0.0903322 -0.049705967

fc2.weight f4 [84, 120]
000000 fa d1 5d bd 7a 3f f4 3d 6b 0f b1 3c a9 59 31 bc
       -0.054155327 0.1192617 0.021613797 -0.010824599
000010 57 62 af 3c 3b 16 f1 3d a3 41 9a 3d 43 3f db 3b
       0.021409197 0.11771818 0.075320505 0.006690891
000020 e1 de f0 3d f9 78 cd bc a2 40 a6 3c 64 45 82 3c
       0.11761261 -0.025082098 0.020294491 0.015902229
000030 ec e7 db 3d 72 1f fe 3a 60 3f 33 bd 0c 39 df bd
       0.10737595 0.0019388034 -0.04376161 -0.10899553
000040 87 45 68 bd 3f 08 a9 bc c8 5b 99 bd 3a d6 b4 3d
       -0.05670693 -0.020633815 -0.07488209 0.08829923
000050 a5 b0 8e 3b 53 cb ab 3c 91 ca 7f 3d c2 34 86 3d
       0.0043545538 0.020970976 0.06244904 0.065530315
000060 39 85 89 bd 3f 8f 1c bd 3c 59 9f 3c 17 b2 a4 3b
       -0.06714863 -0.038222548 0.01945173 0.005026113
000070 0a fe 21 bc 63 d3 45 3d 7c e0 bf bd 82 8c b2 bd
       -0.009887228 0.048297297 -0.09368989 -0.08718206
000080 72 b1 17 3e 36 eb 2f 3d e5 b7 f6 bd d7 00 54 3d
       0.14813784 0.042948924 -0.12046794 0.051758613
000090 52 53 b1 3d 90 62 ac bc 81 9d c0 bd 6c 0f e6 bc
       0.0865847 -0.021043092 -0.094050415 -0.028083526
0000a0 6a c5 b4 bc 50 ff 3d bd 39 1f 0b 3d 9e 17 84 bd
       -0.02206679 -0.046386063 0.033965323 -0.06449817
0000b0 dd fc 04 3d 8e 51 54 3d d0 b4 c7 bb 96 5d a5 bd
       0.03246771 0.05183559 -0.0060945526 -0.08074491
0000c0 2f 2f 82 3b 54 eb 11 3d b8 85 84 ba 5b 80 d8 3c
       0.00397291 0.035624817 -0.0010110652 0.026428392
0000d0 52 a9 a9 3d d7 d7 c3 3c 03 7a ec 3c 47 2e 9a bd
       0.082842484 0.023906631 0.028866773 -0.07528358
0000e0 f6 89 b6 3c d9 ce 5c 3e f7 2c b4 3c e9 52 b0 bc
       0.022282582 0.21563281 0.021994097 -0.02152391
0000f0 f1 70 64 3d 63 b3 47 3c d3 ce 16 bc 28 7b 5e bc
       0.05577177 0.012188765 -0.009204584 -0.013579167
000100 a9 6d 63 bd b7 f9 c7 3d 33 9a b5 bc 51 ef 82 3d
       -0.055524502 0.09764426 -0.022168254 0.06393302
000110 f5 38 74 bd ce 7f 57 bd 34 18 5a 3c ad cf 80 bc
       -0.05962463 -0.05261212 0.013311435 -0.015724028
000120 71 47 26 3d c9 b4 05 bd 4a 6e 1f 3d 8b a2 b9 ba
       0.040595476 -0.032643113 0.03892354 -0.0014162821
000130 bc cd 37 3e 96 35 32 bd 23 3b 08 3d e5 8e 5b 3c
       0.17949575 -0.043508135 0.033259522 0.013400768
000140 1c 99 54 bd de c0 a1 3d 27 36 9b bc 79 5f 22 3e
       -0.05190383 0.078981146 -0.01894672 0.15856732
000150 3a 73 2a bd a9 4a ca 3d cb 68 73 3d 59 3d 0f bc
       -0.041613795 0.098775215 0.05942611 -0.008742654
000160 fa 14 d4 3d ca 1f 47 3d 12 03 8a bd 3d 59 8f 3d
       0.103555635 0.0486143 -0.06738867 0.06999443
000170 f9 e4 a7 3c 39 81 c9 bc 8c b4 1a 3d b9 1b 9b 3c
       0.020494925 -0.024597751 0.03776984 0.018934118
000180 11 be 10 bc 0d 20 0b bd 47 73 97 bc b8 9a b3 3b
       -0.008834378 -0.033966113 -0.018487586 0.0054810904
000190 c6 33 b8 bc e2 a4 76 3b 28 2f 7b 3c 9d ca 64 3d
       -0.022485625 0.00376349 0.015331067 0.05585729
0001a0 bb b3 6d 3d 4f 3c e9 bc cf 1a 92 3d e4 f4 37 3c
       0.058032732 -0.02847114 0.071340196 0.01122782
0001b0 50 4e 43 bd ad 5c 0d 3e d7 1a 63 bd 65 d9 a7 bd
       -0.047682106 0.13804884 -0.05544552 -0.081957616
0001c0 2c 09 61 3d 97 74 67 bd 5a a6 2e 3b b1 f1 62 3c
       0.054940388 -0.056507673 0.0026649446 0.013851569
0001d0 a4 45 44 bd ca 64 f0 bc 1c e4 ae bc 28 9c b3 bc
       -0.047917977 -0.029344935 -0.021349005 -0.021925047
0001e0 e4 86 9b 3d c3 b1 42 3e 25 f3 8b 3c 55 2c cc bd
       0.07594088 0.19013123 0.017083714 -0.09969393
0001f0 3a 8d 28 bc 50 f8 6d 3d c0 68 1c bc 58 f0 aa 3d
       -0.010287577 0.058098137 -0.009546459 0.08346623
000200 94 4f 41 3d 32 78 3b 3c 70 00 54 bb 61 e0 03 3b
       0.047195032 0.011442231 -0.0032348894 0.0020122754
000210 a9 8c ac 3d d4 82 99 bd 90 2b 9c bd ee 62 e8 3d
       0.08425266 -0.074956566 -0.076254964 0.11346994
000220 6e c7 ae 3d ff 8b 68 3d 6b 51 e4 bd 4f 32 c4 3b
       0.08534132 0.056774136 -0.11148342 0.0059874426
000230 ad 90 bd bc c4 ae ef 3d 32 e2 f5 bd 55 d8 0c be
       -0.023140276 0.11703256 -0.12006034 -0.13754399
000240 28 3e 99 bd f0 db 64 be f4 21 43 3d 55 a2 57 3e
       -0.074825585 -0.22349524 0.047639802 0.21058019
000250 eb 5a 20 3d 3e fe 7f 3e 7e c6 13 bd b4 87 a8 3d
       0.039149206 0.2499933 -0.03607797 0.08229008
000260 50 c0 68 3d d2 d5 c5 ba 34 9e 65 bd 29 e9 e2 3d
       0.05682403 -0.0015093631 -0.056059077 0.11079628
000270 f0 e6 2c 3e b8 17 bc bd 94 50 69 3e e5 74 88 3b
       0.1688497 -0.091842115 0.22784644 0.0041643255
000280 d1 01 51 3b d4 bb 70 bd f2 14 03 3c e5 b3 dc bd
       0.0031891952 -0.058772877 0.008000599 -0.107765
000290 db f9 0c 3e a6 8f 23 be 3a 6b 58 bd 1a 22 a6 ba
       0.13767187 -0.15972766 -0.052836634 -0.0012674958
0002a0 9f c2 a0 bd 70 7c e4 3d f4 80 0b 3e 2e 7e 2f be
       -0.07849621 0.11156547 0.1362341 -0.17137977
0002b0 f1 d5 69 3c 85 26 90 bd a9 13 6e 3c 45 57 bf 3d
       0.014272199 -0.07038597 0.0145310545 0.09342817
0002c0 a4 a5 8a bc 49 12 61 bc 5a 0a 21 bd 55 fc e9 3d
       -0.016924687 -0.01373727 -0.039316513 0.11425082
0002d0 5e 9d 32 3e 44 3a b8 bc 2e 18 d8 bb d5 7e 4c be
       0.17442843 -0.02248872 -0.0065946793 -0.19970258
0002e0 40 2c d2 3b 3a 0d e1 3d 04 f5 ca ba 04 6c 26 bd
       0.0064139664 0.10988851 -0.0015484397 -0.040630355
0002f0 7c 8f 71 3c 8b 16 38 3c e5 c2 17 3b 59 cf 8e bc
       0.014743682 0.011235843 0.0023156938 -0.017432855
000300 bd e6 d2 bc 44 1e 08 3e b6 ec 6f 3b a6 ac 1b 3e
       -0.02574479 0.13292795 0.0036609597 0.15202579
000310 e1 6f 1a bd 9c fe 41 3b 1a e4 f8 bc d1 05 ad 3d
       -0.037704352 0.0029601222 -0.030382205 0.08448375
000320 f3 b2 8e 3e 75 96 35 bd 1e 6c c0 3d 7b ea 19 bd
       0.27870902 -0.04433294 0.09395622 -0.037577134
000330 e5 1d 49 bc 8c 14 fc bc 7e 74 cf 3d aa 40 97 bc
       -0.012275194 -0.030771516 0.10129641 -0.018463451
000340 39 2a 8c 3d 28 a9 2e 3e 2d d6 1d bd dd 3f 94 3d
       0.06843991 0.17056715 -0.038534332 0.072387435
000350 17 37 52 bd 1d 86 93 3d b8 f7 f9 3d a1 f6 1f bb
       -0.05132207 0.072033145 0.12205452 -0.0024408477
000360 5a fd 07 3e 10 5d 52 bd 3b 8a d7 3c 8b 57 bd bd
       0.1328024 -0.051358283 0.02631103 -0.09245213
000370 13 71 93 bc ed 98 04 3d 33 06 f0 3c ca 08 0b 3e
       -0.017998254 0.032372404 0.029299831 0.13577572
000380 70 eb 26 bc 04 b9 66 bc 08 5d e7 bc e1 41 c8 bd
       -0.010187969 -0.014082197 -0.028242603 -0.097781904
000390 d9 d5 1d 3e 51 72 0b bc a8 64 22 3d af c0 95 bd
       0.15413608 -0.008511142 0.039646775 -0.07312142
0003a0 5e f2 6f 3c 58 dd f9 bd 8e 73 a6 bd e0 1b eb bd
       0.014645187 -0.12200421 -0.08127509 -0.11479926
0003b0 0e de cb bd 96 c8 59 3d 89 05 0e 3d 02 f4 3b 3b
       -0.09954463 0.05316981 0.034673247 0.0028679376
0003c0 6b 5c 6f ba 3b c9 02 bd cd 95 f9 3c 01 04 7a 3d
       -0.0009130898 -0.03193019 0.030466938 0.061038975
0003d0 24 01 6f 3d 03 92 20 be f3 56 85 3c a7 83 7e bd
       0.058350697 -0.15680699 0.016276812 -0.062137272
0003e0 01 ea 64 3d 78 88 be bc cb 18 90 3c 4a 17 0d bd
       0.055887226 -0.023258433 0.017589947 -0.03444604
0003f0 1b ac a3 bd 36 0e 0e bd e2 ed 28 3c 32 1b a4 3d
       -0.07991811 -0.03468152 0.010310622 0.080129996

fc2.bias f4 [84]
000000 0a a8 19 3c bf 7b bc 3d b0 17 6b 3e e4 84 0c 3d
       0.009378443 0.0920329 0.22958255 0.034306422
000010 39 d1 75 bd c0 a1 da 3d 5d 4e c5 3d ce e0 0d 3e
       -0.060013983 0.106753826 0.09634087 0.13855287
000020 70 a6 50 38 ff 2b be 3e 2c bf 2d 3d 3e 6b 85 3d
       4.974607e-05 0.3714294 0.042418644 0.065145954
000030 c9 e9 d6 3d b2 07 71 3d 82 42 88 3c a3 6d 5c 3d
       0.1049381 0.05884523 0.016633276 0.053815495
000040 2e bb 43 3e 70 e8 d7 3c 73 15 52 bb af e6 b0 3c
       0.19114372 0.026355952 -0.0032056242 0.021594374
000050 ac d1 79 bc 4e 13 ba 3d c0 7b 26 3d 2f 26 92 3e
       -0.015247744 0.09085713 0.04064536 0.28544757
000060 e7 8b 7e 3c 26 68 d5 3d 0e 52 9f 3d 29 a3 fa 3d
       0.015536285 0.10420255 0.077793226 0.122381516
000070 99 6c a8 bc 67 ed 6a 3e 43 43 47 3d e1 4e 2f bd
       -0.020559596 0.22942124 0.04864813 -0.042799834
000080 cf cb aa 3d f7 d9 a9 3d a4 89 db 3d 4e 10 06 3e
       0.08339655 0.082935266 0.10719612 0.13092157
000090 2a f7 cd bc 02 ad 0a 3e 42 f1 70 3e 67 25 b7 bc
       -0.025142271 0.1354256 0.23529533 -0.022356702
0000a0 8c 6f 6d 3c 6e 72 4c 3b 50 ba d3 3c 57 05 2f 3e
       0.014491927 0.0031196135 0.025845677 0.1709188
0000b0 cf ca 60 bc 76 2e 08 3e 1e d3 3b 3d 98 b5 8b 3d
       -0.013720228 0.13298973 0.045855634 0.06821746
0000c0 8c 1c 04 bd dd 15 eb 3d f8 7a 01 3d 8a e1 27 3c
       -0.032253787 0.114787795 0.031611413 0.010246644
0000d0 cb a7 57 3d 3d 06 df 3d d6 cc 8f 3c ce e2 3e 3d
       0.052650254 0.10889862 0.017553728 0.046603017
0000e0 25 cb eb 3d 5e 47 3d 3e e8 7e 09 bc fa 9d 35 3d
       0.11513356 0.18484256 -0.008392073 0.04434011
0000f0 48 80 24 3d 48 a8 b4 3d aa 30 00 3d eb d5 b9 3e
       0.0401614 0.088211596 0.03129641 0.3629602
000100 b3 74 b1 3d fa c5 33 3d e1 55 f7 3d 9d 8f 53 3d
       0.08664837 0.043889977 0.12076927 0.051650632
000110 41 3e 5c 3e cf a6 5e 3e 01 42 91 3d 6d 52 2a 3e
       0.21508123 0.2174332 0.07092667 0.16633005
000120 93 a9 2b 3e 24 f2 39 3e 9c 75 31 bd 74 a8 4a 3d
       0.16763906 0.18158776 -0.04332505 0.049477056
000130 79 3e ca 3d 70 c1 9d 3c 72 59 d9 3c 6a c7 21 3d
       0.09875197 0.019257277 0.026531909 0.039496817
000140 26 72 4c 3d 69 50 33 3e e4 ac 3f 3d 7d 95 f1 3d
       0.049913548 0.17511143 0.04679574 0.11796091

fc3.weight f4 [10, 84]
000000 bb a9 9c 3e 77 fb 01 be 4f 1b 93 bd 36 a8 fd bd
       0.30598244 -0.12693582 -0.07182943 -0.12385599
000010 3a eb 71 3e 4f 63 6c be b0 f2 a2 be 68 e6 2d 3e
       0.23624888 -0.23084758 -0.3182578 0.16982424
000020 c4 50 a3 3d 8b 13 b2 be d3 a0 85 be ac 81 97 be
       0.07974389 -0.34780535 -0.26099262 -0.2959112
000030 1f 16 4c be 5b 00 a6 be 12 94 d2 3e ff 25 c6 3d
       -0.19930314 -0.32422146 0.41128594 0.09675216
000040 89 ce 3e 3e e9 81 56 3e eb d4 8e bb b5 db b3 bd
       0.18633474 0.20947994 -0.004358878 -0.0878214
000050 c2 b8 1a 3e 91 2a 59 be 0a d2 54 bd a2 7e 94 be
       0.15109542 -0.21207644 -0.05195812 -0.29002863
000060 30 ee 07 3e 50 90 b5 3d 72 f3 c9 bd 83 6b 89 bd
       0.13274455 0.08865416 -0.09860887 -0.06709959
000070 d0 2c 35 be 10 f4 c1 3b de 15 17 3f 36 b9 e9 3d
       -0.17692876 0.005918987 0.5901774 0.11412279
000080 51 cc e0 be 4c 3c 02 3a 68 84 46 be 9c 3a 96 3e
       -0.4390588 0.00049680914 -0.19386446 0.2934159
000090 83 55 e4 3e c4 b7 68 be 16 f5 0b bf ae 87 09 3e
       0.4459649 -0.22726351 -0.54670846 0.13430664
0000a0 41 17 b9 3e 15 40 fb bd 4c 7a 88 3e 47 02 17 be
       0.36150554 -0.12268082 0.26655805 -0.14746962
0000b0 64 56 f1 3e 85 c0 b7 3e 6c 47 45 be c3 6e 5e be
       0.47136223 0.35889068 -0.19265527 -0.2172194
0000c0 5c 26 0c 3e c2 1a d8 bd d0 69 07 3c 5c 1b a0 be
       0.13686508 -0.10551979 0.008264974 -0.31270874
0000d0 2c 82 6d bd 93 6d 9b 3d 95 04 5e 3e 3d 29 d8 bd
       -0.05798547 0.07589259 0.21681435 -0.105547406
0000e0 f7 e5 be 3e 9d 73 b6 3e 9b b7 57 3c 7d f3 11 3e
       0.37284824 0.3563508 0.013166334 0.1425304
0000f0 0b 48 d6 3b 8e af 70 be 55 67 0c 3f 00 c3 d5 bb
       0.00653935 -0.23504469 0.5484517 -0.00652349
000100 7a c6 4d be 62 f1 35 3f 12 61 cd 3c 16 59 88 3d
       -0.20095244 0.71071446 0.0250707 0.06657617
000110 be d3 6f 3d d2 b5 27 be a6 8a 24 be 0a 09 01 be
       0.058551542 -0.16377953 -0.16068515 -0.12601104
000120 58 7c 2f be 82 e7 58 3c 74 ef cc bd e4 f4 40 be
       -0.17137277 0.0132387895 -0.100066096 -0.18843418
000130 4a 02 a6 bd c4 9c b2 bd bb ea 2f 3e c0 b6 31 3d
       -0.08105905 -0.08721307 0.17179386 0.043387175
000140 4e d6 38 bb 4b 0e 38 3e 02 c5 32 bd 37 2d 96 be
       -0.0028203907 0.17974202 -0.043644913 -0.2933137
000150 8e 81 e2 bd 43 80 b8 be 0f 20 41 be 10 f3 84 bd
       -0.11059867 -0.36035356 -0.18859886 -0.06491673
000160 b4 41 8b 3e e6 f7 26 be 18 a2 0b be ff ec 16 be
       0.27198565 -0.16305503 -0.13636053 -0.14738844
000170 7f 3a d3 bd 08 1e 8b be 3e a4 32 3e da 6c 23 3d
       -0.103138916 -0.2717135 0.17445466 0.03989873
000180 b9 26 4c be 73 19 25 3f c4 6a 8d be 0f 4f 84 bd
       -0.19936647 0.6449196 -0.27620518 -0.06460392
000190 52 ca 97 3d a1 fd 52 3e e1 0a 6d bb 95 29 9d 3e
       0.074116364 0.20604564 -0.0036169814 0.30695787
0001a0 b1 3c b9 3d 1b d7 bf bd b4 3d 0e be 36 58 b1 be
       0.09044779 -0.093672 -0.13890725 -0.34637612
0001b0 cc d2 65 3d 20 f4 6d be 00 25 23 be 62 54 c7 3d
       0.056109235 -0.23237658 -0.15932083 0.097328916
0001c0 d3 d0 09 3e cc 78 8e be df e5 7d bd a5 40 2f 3f
       0.13458566 -0.27826536 -0.0619868 0.68458015
0001d0 dd cf 25 3f e3 49 47 be 43 a0 cd bd 51 10 85 be
       0.647703 -0.1946178 -0.10040333 -0.2598901
0001e0 b1 32 af 3d 0c 2d c0 bd c8 ac 0c bd 47 f8 42 3e
       0.085545905 -0.09383592 -0.034344465 0.19040023
0001f0 f4 a7 e3 3d b3 8f c3 bd 59 77 cc 3e 93 fc 58 be
       0.11116019 -0.09548893 0.39934805 -0.211901
000200 9e 3d 37 3e a7 95 00 3e f0 af 28 bd 8b fe 82 bd
       0.17894599 0.12557088 -0.041183412 -0.063962065
000210 31 e2 b8 3c b3 de 9f bd 93 77 11 bc 3d 0b 12 3f
       0.022568794 -0.078061484 -0.008878606 0.570484
000220 8d df d0 bc 93 56 a3 be 05 d6 98 3c 08 a2 c4 bd
       -0.025497222 -0.31901988 0.01865674 -0.096012175
000230 68 a7 2f 3d 7b c5 c3 3e 5c a1 ea 3b 32 e9 2c be
       0.04288426 0.38236603 0.007160349 -0.16885832
000240 7d a3 11 3e 17 8e ad 3e 22 c7 2b be d9 18 76 be
       0.14222522 0.33897468 -0.16775182 -0.24032916
000250 44 0c 8f be 27 bb f9 bd 18 3a 5c be 05 00 c1 3d
       -0.27939045 -0.121938996 -0.21506536 0.09423832
000260 b4 93 45 be cd 3a 8b bd 5f d1 9d 3c b9 11 74 be
       -0.19294626 -0.06798325 0.019264875 -0.23834886
000270 e5 d5 f8 3c 66 24 85 be 05 cb 63 3e 13 98 db bd
       0.03037543 -0.26004332 0.22245415 -0.10722365
000280 d1 72 62 3e 50 21 d1 bc 92 92 03 be 37 cb 0b bd
       0.22114111 -0.02552858 -0.12848881 -0.034129348
000290 bf 4a 4f 3d 8a 46 b1 3d 0d 13 13 3e a3 83 a7 bd
       0.050608393 0.086560324 0.14362736 -0.081794046
0002a0 2e e4 39 3d d1 14 79 3d 59 ea c9 be 45 35 1c 3f
       0.045383625 0.060810868 -0.39436606 0.6101878
0002b0 a6 35 3b 3e 15 4b 8e be f4 79 b6 3d 8f d4 89 be
       0.18282184 -0.27791658 0.089099795 -0.26919982
0002c0 a3 c3 bc bc da a4 6f bc cc 95 3e 3f 75 8f 8b 3e
       -0.023042506 -0.014626706 0.7444732 0.27257887
0002d0 4a fc bc 3d 52 9f 82 be d6 23 b3 3e 22 53 97 3d
       0.09227808 -0.25512177 0.34988278 0.07388903
0002e0 ed 8b 1a be c7 8f d3 be 28 78 48 bd 67 cb 69 3e
       -0.1509244 -0.4132063 -0.048942715 0.22831498
0002f0 da 75 ba bc 13 3b 16 be 7f 03 95 3e ba 35 66 be
       -0.022761274 -0.14670973 0.2910423 -0.22481433
000300 41 0b 44 bc 49 0b 4d 3f 40 7f 8b be 48 8d 11 be
       -0.011965574 0.80095345 -0.27245522 -0.14214051
000310 28 26 30 bd 0e 45 11 3f 0f 27 2f bc a7 02 3d be
       -0.04300514 0.56745994 -0.010690465 -0.18458043
000320 39 9a 06 be fd 47 24 bd c8 d9 2d be 7f 0a 81 bb
       -0.13144769 -0.040107716 -0.16977608 -0.003938019
000330 02 14 b3 3e 1d a1 09 3f 20 8f 1f 3e be 47 f1 bd
       0.34976202 0.53761464 0.15581942 -0.11781262
000340 b0 97 10 be 24 62 25 3e e2 d3 14 be 1b be ab be
       -0.14120364 0.16150719 -0.14533952 -0.33543476
000350 4a 0b 22 3f af 11 d4 be 4b bc 1f 3e 8f d6 1a bc
       0.63298476 -0.41419742 0.15599172 -0.009450569
000360 22 ee b0 3e ba ab 7b 3d 7c af a9 bd 63 5f 25 3e
       0.3455668 0.061443068 -0.08285424 0.16149668
000370 a2 8b 91 bc 02 3e e6 3c fa 82 66 bc 91 d4 86 be
       -0.017766777 0.02810574 -0.014069313 -0.2633405
000380 0f 31 a2 be 9f 62 ef be e7 ac e7 bc 63 1f 92 3e
       -0.31678054 -0.4675493 -0.028280688 0.2853957
000390 a2 5c 72 bd 1e 90 d4 3e a3 b8 f9 bd 5f 9e b8 3c
       -0.059170373 0.41516203 -0.1219342 0.022536455
0003a0 21 ba bd 3c 13 2a d6 3d 9b 60 3c be eb 7a 34 be
       0.023160042 0.10457244 -0.18396227 -0.17625014
0003b0 80 77 22 be 36 93 6c be 42 d6 93 bd b0 ff 98 3e
       -0.15865898 -0.23103032 -0.07218601 0.29882574
0003c0 2b 21 86 be 80 1f b4 3e 9d 5a a1 3c b2 32 df 3d
       -0.2619718 0.35180283 0.019696528 0.10898341
0003d0 69 5a e5 be f2 c4 a8 bd af dc f6 bd 99 c8 70 bd
       -0.4479554 -0.08240689 -0.12053811 -0.058785055
0003e0 1e f6 ed bd 64 41 01 be cc 10 9c bc 91 e8 70 3e
       -0.11619209 -0.12622601 -0.019050978 0.23526217
0003f0 48 ec 77 be 69 02 63 be 7e 8d 13 3e 82 8e a5 be
       -0.24211228 -0.22168888 0.14409444 -0.32335287

fc3.bias f4 [10]
000000 47 6b a2 bd 7d 17 95 be 73 52 75 bd b3 d6 18 3e
       -0.07930618 -0.29119483 -0.059893083 0.14925651
000010 dd 16 56 3e 86 1a 82 bc 46 ce f6 3d 55 5a 2f 3d
       0.20907159 -0.015881788 0.12051062 0.042810757
000020 d2 88 b7 bd 3e fa c3 3c
       -0.08961643 0.023923036
